sketchgen_last_model.pth (torch, 773750 bytes, 28 tensors)

linear_in.weight f4 [32, 8]
000000 ca 49 49 bc 0c 34 40 3e 23 97 3a 3e 1b b8 15 3f
       -0.012285659 0.18769854 0.18221717 0.5848405
000010 81 ed 27 3f c2 e3 c8 3d 73 a6 90 be 05 dc 3e bf
       0.6559678 0.09809066 -0.2825199 -0.74554473
000020 bb e4 18 be a0 02 3a 3e cb 13 df bb 36 16 ca bd
       -0.14931004 0.18165064 -0.0068077794 -0.09867518
000030 56 a5 a2 bc b6 15 8e be 90 6a 07 be 4d 6d e1 3d
       -0.019854229 -0.2775094 -0.13224244 0.110071756
000040 be 23 47 be 0f 3e 30 be ca ff e3 3e a1 f9 aa 3e
       -0.19447228 -0.17211173 0.4453109 0.33393577
000050 31 b2 97 be ba 27 5b be ae 7f 0e 3f 1a b6 15 bf
       -0.29628137 -0.21401873 0.55663574 -0.5848099
000060 2d d4 39 3e ed 1c f6 be 6b 1f 9c 3e 02 95 d4 bd
       0.18147345 -0.48068944 0.3049272 -0.103799835
000070 53 b6 93 bf 34 31 cb 3e 32 60 fd 3e 9d a1 cd 3e
       -1.1540016 0.39685977 0.49487454 0.40162364
000080 2a be 5f 3d 01 89 08 bf 52 4c be 3e 87 01 32 3f
       0.054624714 -0.5333405 0.37167603 0.6953358
000090 50 bd ef 3c 76 83 45 3e 36 27 70 be c3 55 80 bd
       0.029265076 0.1928843 -0.23452458 -0.06266358
0000a0 53 cb 9e 3e dc e9 9f be 83 a5 90 3f 4a ec 03 3f
       0.310145 -0.31233108 1.130051 0.51532423
0000b0 3b 0f f8 bd 6b df 34 3e 01 17 4c be 21 ae 8f be
       -0.1211228 0.17663352 -0.1993065 -0.28062537
0000c0 36 ee a0 3e e2 bd 16 be fc 79 91 3e ea f8 c3 3c
       0.3143174 -0.14720872 0.2841338 0.023922402
0000d0 b4 e0 27 3f c7 9d 20 bd e3 26 f9 3d a5 35 04 bf
       0.65577245 -0.03921297 0.1216562 -0.51644355
0000e0 17 55 ee bb 11 40 31 3c 7b 75 68 3e a4 d9 58 3e
       -0.007273327 0.010818497 0.22701065 0.21176773
0000f0 73 10 02 3f 31 4d 25 3e 9f af 9d bd 76 b8 ea bd
       0.5080635 0.16142727 -0.07699513 -0.114609644
000100 35 35 30 3e dc 71 14 be 51 98 29 be 32 36 e6 be
       0.17207797 -0.14496559 -0.1656201 -0.44963223
000110 d9 81 b7 3d f5 95 85 bd b6 f9 85 be 6f 07 d5 3e
       0.08960313 -0.06522743 -0.26167077 0.41607234
000120 8d ac a6 be a6 2c 16 bf 0e 7e bf 3e a3 08 6a bf
       -0.3255352 -0.5866188 0.3740086 -0.9141943
000130 cb 79 05 bf 64 b0 01 bf 4d e0 d7 3e 9d 2c f5 3d
       -0.52138966 -0.50659776 0.42163315 0.119714
000140 f1 98 c1 bd 06 a3 9f bd d7 4b 95 bf bf bd 80 bf
       -0.094529994 -0.07794766 -1.166377 -1.0057906
000150 5c e1 64 3d 08 c2 5c 3f 56 b5 db 3e 3d 1a 88 3e
       0.055878982 0.8623357 0.42911786 0.26582518
000160 4c 9b a4 3d d8 09 49 3d 71 b9 e7 3e 2a f2 06 3f
       0.08037433 0.049081653 0.45258668 0.52713263
000170 18 52 48 3f 52 74 13 3e 17 a4 26 bf 5a 35 13 be
       0.78250265 0.14399841 -0.6509413 -0.14375821
000180 1e 69 74 3f e1 ec 27 be cc 5a 49 bf 11 c0 d8 bf
       0.95472896 -0.16398956 -0.7865417 -1.6933614
000190 7c d4 10 3f 11 13 d9 3e 0e 74 2e 3e d2 68 aa 3e
       0.56574225 0.4239736 0.17036459 0.33283097
0001a0 dc 53 4b 3e 01 b0 74 3e 17 2d 24 bf 6f 17 8b 3d
       0.19856209 0.23895265 -0.641313 0.06791579
0001b0 c7 eb 12 be 46 e6 fd 3e 7b 09 7c 3e d6 e6 36 bf
       -0.14347754 0.49589747 0.24612992 -0.7144598
0001c0 9b 2c e4 bd 44 4a 41 bf f6 dc 28 3f b6 81 4e be
       -0.1114132 -0.75503945 0.6596216 -0.20166668
0001d0 b4 e0 06 3e cc fe 2b bd 8f 3d fd 3e e5 dd 01 be
       0.13171655 -0.04199104 0.49461028 -0.12682302
0001e0 e4 c9 ae 3e ba 4c 08 bf 9e 8d 0d be 68 80 a1 3e
       0.34138405 -0.53242075 -0.13823554 0.3154328
0001f0 e2 c4 f2 3d 1c c9 06 3f d8 2c 79 be 3a 65 05 bf
       0.11853959 0.5265062 -0.24333513 -0.52107584
000200 04 f2 38 bf 99 dd 3d be 01 36 03 3e 9b f3 77 3f
       -0.72244287 -0.18541564 0.1281357 0.9685609
000210 cf be 3e 3c 70 3a 3b bf ac b1 ea 3d 6e e5 a0 bd
       0.011642172 -0.73136044 0.114596695 -0.0785626
000220 8a f3 d7 be 43 6e 8f 3d 26 f7 70 3e aa 19 17 bf
       -0.42177993 0.07003453 0.2353178 -0.59023535
000230 60 1e b9 3e 01 1c 20 3e 9a 5e 82 bc 58 b7 c7 3d
       0.36155987 0.15635683 -0.01591425 0.09751767
000240 0c d8 04 3f 6e 17 e4 be 6b ca 12 be b9 3f 39 bf
       0.5189216 -0.44549125 -0.14335029 -0.7236286
000250 51 8e e3 3e 4b f4 33 be 96 87 a1 3e 43 b7 27 bf
       0.44444516 -0.17573659 0.31548756 -0.6551401
000260 d4 a1 5e be 23 5f fd 3e 27 66 a0 be f4 3c 01 bf
       -0.2174142 0.49486646 -0.31327936 -0.5048363
000270 f5 93 13 3f 1a 68 b2 3e 47 4c fd 3d 51 90 a9 be
       0.5764764 0.34845048 0.123680644 -0.33117917
000280 ca 6a 95 3e 90 49 5a 3e 70 92 da bc 32 62 99 bd
       0.29183036 0.21317124 -0.026681155 -0.074894324
000290 12 67 df bd 0f 1b 41 3e e8 6b 06 bf de 78 49 be
       -0.10908331 0.18857978 -0.525084 -0.19675013
0002a0 92 ca 41 be 28 17 43 3e ad 0d 93 3d 5c 64 75 be
       -0.1892493 0.19051802 0.07180343 -0.23964065
0002b0 02 9e 55 3d e0 18 cc 3d 94 07 c4 bc 6e 78 1e be
       0.05215264 0.09965682 -0.023929395 -0.15475628
0002c0 55 8b 11 bf 23 05 95 be f1 64 31 bf a4 d3 8f bc
       -0.5685323 -0.29105482 -0.6929465 -0.017556973
0002d0 8d 14 d0 bd f0 5c 4c 3f 86 d7 89 3e e8 f1 3c 3f
       -0.1016017 0.7982931 0.26922244 0.7380662
0002e0 e2 77 1e 3f 94 7b 43 bf fb f7 15 bf 7c 29 56 bf
       0.61901677 -0.7636044 -0.58581513 -0.8365705
0002f0 13 11 17 3f ac 40 5d 3f 37 c7 97 3e d5 e8 d2 3e
       0.5901043 0.86426806 0.29644176 0.41193262
000300 23 d3 0c 3d fb fe 06 3f f4 4e ac bf e3 98 8d be
       0.034381043 0.5273282 -1.3461595 -0.27655706
000310 2c 3d 21 3e 8e 0c 01 bf 38 ef c9 3e c8 f8 c9 3e
       0.15745991 -0.5040978 0.39440322 0.39447618
000320 44 b4 25 be c5 c0 a6 be c2 b3 4b 3f 59 9d 9b 3f
       -0.16182047 -0.32568946 0.79571164 1.2157394
000330 73 d3 42 3d 76 95 70 be ff a1 c2 3d b2 3c 22 be
       0.047564935 -0.23494515 0.095035546 -0.15843466
000340 88 1f 32 3f 89 67 d4 3c 21 b0 50 bf ee a3 80 be
       0.6957936 0.025928276 -0.8151875 -0.25125068
000350 6d 16 c6 3e ae 2f da be 43 32 61 3e e9 71 e6 3e
       0.38688985 -0.42614502 0.2199183 0.45008782
000360 b1 e9 3c be f1 dc 1a 3e f2 78 48 bd ea 55 30 3f
       -0.18448521 0.15123345 -0.048943467 0.68881094
000370 1a c0 bb be 71 56 a7 3d 05 a8 bd 3e aa e5 e9 be
       -0.3667 0.08170784 0.3704225 -0.45683032
000380 9b 84 4e 3e 52 92 5f be c3 f5 5c 3e 68 f5 92 3e
       0.20167772 -0.2183316 0.21578126 0.28702855
000390 d7 1f 50 3f 89 2d 46 be bf c0 a4 3e 44 1c b4 be
       0.81298584 -0.19353308 0.32178304 -0.35177815
0003a0 c7 04 7b be 40 75 35 3f 06 30 71 bd 98 2f 14 bf
       -0.24513541 0.70882034 -0.05888369 -0.5788512
0003b0 d4 d6 8c 3d 0b 58 65 be 1c e1 5c be a2 c8 e4 3e
       0.06876913 -0.22396867 -0.21570247 0.4468432
0003c0 cc ef 92 bb 22 da b7 bd 75 6b 9a 3e eb 07 08 3e
       -0.0044841524 -0.089771524 0.30160108 0.1328427
0003d0 de 5d 1f 3f 01 46 e7 3e 8b b2 65 be 62 95 57 bd
       0.62252605 0.45170596 -0.2243139 -0.052632697
0003e0 8f 2c 48 3d 6b 4a 61 bf 1b dd 02 bf 41 70 8b 3f
       0.04887062 -0.8800418 -0.5111863 1.0893632
0003f0 03 72 33 be 98 3d 7f 3e 9c ec 8d 3e 7e 7f 62 3e
       -0.17523961 0.2492584 0.2771958 0.22118947

linear_in.bias f4 [32]
000000 83 e4 29 3e 81 a1 17 3e f3 4c 02 3e 50 6b d7 be
       0.16591077 0.14807703 0.12724666 -0.4207406
000010 8d 2f e3 3c 72 56 8d 3d ee a2 2b 3e d1 18 59 3d
       0.027732635 0.06901254 0.16761371 0.053002182
000020 15 b2 96 bc 22 99 78 be 17 03 32 be 24 33 53 be
       -0.018395463 -0.24277166 -0.17383991 -0.20624977
000030 f9 b8 ad 3d 89 80 bb 3c 7c c0 c0 be 99 00 67 3e
       0.08482546 0.022888439 -0.37646854 0.22558822
000040 8f ce d1 be 88 c8 f7 3d 09 c6 10 be 73 d6 54 be
       -0.40977904 0.12098795 -0.14138044 -0.20784931
000050 cf a2 d2 3b a2 08 2c bd 56 7c bd bd 71 85 1c be
       0.0064280997 -0.04200042 -0.09252231 -0.15285279
000060 d2 c7 c0 be 66 01 05 3e f8 d2 81 be b5 5d 35 bd
       -0.3765245 0.12988815 -0.2535627 -0.04427882
000070 d3 b4 75 3d a3 5c b6 bd 10 2a 5d be bc 6b f9 bd
       0.0599869 -0.08904388 -0.21598077 -0.12178752

lstm.weight_ih_l0 f4 [256, 34]
000000 97 71 aa 3f f5 4f c7 3e f0 cd 8f 3e 9b 18 b6 bf
       1.3315915 0.3892819 0.28086805 -1.4226259
000010 71 42 03 be ba 4b 94 3e 6a c5 87 3f 3a e1 47 3f
       -0.12818314 0.28964025 1.0607121 0.78078043
000020 69 53 76 bf 90 82 a3 bf 36 fc 63 be 5f fd d4 3d
       -0.96221024 -1.277422 -0.2226418 0.10399889
000030 4c 29 59 3e a2 00 b2 3f d7 ef aa bf 4e 17 43 3f
       0.2120716 1.3906443 -1.3354443 0.76207435
000040 16 5f 9a bf 3c 12 ac 3e 00 66 66 be ba bf d4 3e
       -1.2060268 0.33607662 -0.22499847 0.41552526
000050 c7 fe 45 3f 90 83 ae 3e 29 46 55 bf c7 14 be be
       0.77341884 0.3408475 -0.8331018 -0.37125227
000060 92 40 07 bf 06 f8 d2 3a 90 16 4e bf 1d 74 1a 3f
       -0.528329 0.0016095645 -0.8050318 0.60333425
000070 43 f6 11 3f 99 72 a4 bd 5b 36 42 be 26 91 9c bf
       0.5701639 -0.0802967 -0.18966047 -1.2231796
000080 9e 89 81 3d 6f 3c 85 bd 31 de 4c 3f f0 ee 26 3e
       0.063250765 -0.065056674 0.8002654 0.16302085
000090 14 78 51 be 64 a9 66 bf 8a 93 1c 3f a9 47 0a 3f
       -0.20455962 -0.9010222 0.61162627 0.54015595
0000a0 8c 5e b1 3e 47 28 04 3f a2 07 99 bd 5c 5c 28 bf
       0.34642446 0.5162396 -0.07472159 -0.6576593
0000b0 ef ab 6e bf 08 93 1b 3f 09 1c ac be 91 86 54 be
       -0.932311 0.60771227 -0.3361514 -0.20754458
0000c0 f6 64 a5 be 25 9e 98 3e 25 c0 ce 3d ed de d9 3b
       -0.3230359 0.29808155 0.100952424 0.0066488893
0000d0 91 cb d3 bd 6b 4d 09 3e 76 7a ef 3e 12 74 52 3e
       -0.103415616 0.13408439 0.46773118 0.2055209
0000e0 d9 17 4f bf 12 f1 f2 be 3a 9a d8 be f5 0f b5 3e
       -0.80895764 -0.47449547 -0.42305166 0.35363737
0000f0 bc bd 57 be 7e a9 2a be 6f da 8d 3e 28 73 12 3e
       -0.21068472 -0.16666219 0.27705714 0.14301741
000100 62 32 d1 3e 7f 55 a0 be d9 4a 17 3e ae fa 10 be
       0.40858752 -0.31315228 0.14774646 -0.14158127
000110 ef 40 14 3c 5a a9 70 bd 24 b1 bd be df 93 98 be
       0.0090486845 -0.058755256 -0.3704921 -0.29800317
000120 cc a5 2a 3e cd 90 fd 3d f9 ac 66 be 23 8e 5d bc
       0.16664809 0.12381134 -0.22526921 -0.013522658
000130 34 50 96 3e 52 35 01 be e9 ee 1c 3d 00 f9 cd 3e
       0.29358065 -0.12617996 0.03831378 0.40229034
000140 df e9 29 3e 7e 60 52 be da aa e9 bc 6b 4b 61 3d
       0.16593121 -0.20544621 -0.028523851 0.055003565
000150 7b ea 54 bd 11 fe c3 3d 60 b0 20 3e c6 8b cf 3d
       -0.05198143 0.09569944 0.15692282 0.101340815
000160 c1 e6 cb 3e 0c 54 b1 3e 72 08 4a be 4f 58 33 3d
       0.3982449 0.34634435 -0.19729784 0.04378539
000170 71 90 03 be 45 5f 69 be 16 fb 26 3d 63 e3 04 bf
       -0.12848069 -0.22790249 0.040766798 -0.51909465
000180 23 3c 92 be 04 bf be 3e 30 cc ba 3e f4 11 c0 be
       -0.28561506 0.37255108 0.36483908 -0.37513697
000190 d4 ce c2 bd c9 d6 73 3c 95 d3 90 bf 5c ef 85 3f
       -0.095121056 0.014882752 -1.131457 1.0463672
0001a0 07 8b 08 bf 5b 81 35 3e 95 be 26 be 42 1c 5e be
       -0.5333714 0.17725126 -0.16283639 -0.21690467
0001b0 0d ea fd be 42 fc 2e be e4 dd 51 3f af 4c a5 3e
       -0.4959263 -0.17088416 0.81979203 0.32285067
0001c0 99 83 c2 3b f0 cf 72 be 0a 24 2a 3f 38 98 b7 bf
       0.005936098 -0.23712134 0.6646124 -1.4343328
0001d0 b5 fe dd be ed 96 6a bf 31 30 fb be e7 0c 09 3f
       -0.4335839 -0.91636544 -0.49060205 0.5353531
0001e0 f7 2f 30 bf ea b3 8b bf 36 10 c8 bd ff 74 12 bf
       -0.6882319 -1.091428 -0.09768717 -0.5720977
0001f0 e0 01 09 3f fa ba a7 3e 47 68 4a 3e 1d db 15 bc
       0.53518486 0.3275984 0.19766341 -0.009146479
000200 01 51 21 3f 39 d0 6e bf c0 c5 c2 be f7 ae 48 3f
       0.6301423 -0.9328647 -0.38041496 0.78391975
000210 ed e9 d7 be 73 3d a4 bd f3 8a b5 bd c6 b7 1d be
       -0.4217066 -0.08019533 -0.08864393 -0.15402135
000220 1a ea 52 be 14 0b 2b 3f 31 e2 ef 3e fc 71 65 3e
       -0.20597115 0.6681378 0.46852258 0.22406763
000230 41 5c 7d be 4f fd 9e 3d d1 68 3b 3e 17 8e 8f 3d
       -0.24742223 0.077631585 0.18301703 0.07009523
000240 8d 8c c0 be 6a 26 25 3e 3a 20 23 be 68 c2 4f bf
       -0.37607232 0.16127935 -0.15930262 -0.81156015
000250 84 d6 7a 3c 0b 2d 9a 3d 26 8e 5e bd c2 e7 f4 be
       0.015309934 0.075281225 -0.054334782 -0.47833067
000260 41 bb f9 be f8 ba dd 3e 85 c4 81 be d1 2b 13 bd
       -0.48775676 0.43306708 -0.25345245 -0.03593046
000270 bb 72 67 be 0a e6 be 3d 04 89 b5 be 4f e0 ba be
       -0.2260236 0.0932122 -0.35456097 -0.3649926
000280 d5 17 48 be 6a b8 56 bc ef 1c d3 be 56 c6 df 3d
       -0.19540341 -0.013105491 -0.41233012 0.109265015
000290 e9 c2 79 be 99 5e af 3e 42 3e 77 bf 9d 74 f3 be
       -0.24390759 0.3425186 -0.9657937 -0.47549906
0002a0 bf f9 a9 3d 87 e8 26 3e 06 f8 d0 3d c7 3d aa be
       0.082995884 0.1629964 0.10203557 -0.33250257
0002b0 be 1c 3d bf 25 52 a8 3e 33 a2 87 3e e9 31 e3 3d
       -0.7387198 0.3287517 0.26490936 0.11093504
0002c0 33 63 3f bf c2 f1 a0 be 34 16 d0 3e f4 28 ac 3d
       -0.7476074 -0.31434447 0.4064194 0.08406249
0002d0 2d 8c 61 bd e6 b5 6b 3f 98 23 e4 be ee c5 3b be
       -0.055065323 0.9207443 -0.44558406 -0.18337223
0002e0 a4 27 6e 3e 15 ff e3 bd df e4 3c 3f b4 5b cb be
       0.23257309 -0.111326374 0.7378673 -0.397184
0002f0 2d a7 88 3d 69 e8 13 3f 1f 1a 4c 3f 9c 47 e0 3e
       0.06672511 0.57776505 0.7972736 0.43804634
000300 98 77 17 be d9 0c 36 bd c2 69 c2 3d 9c 4f e5 be
       -0.14791715 -0.044445846 0.09492828 -0.447873
000310 f2 43 19 3d 29 f5 db be c0 87 25 bf a0 79 ab 3e
       0.037418313 -0.4296048 -0.64660263 0.3349123
000320 0a 1e 63 3f 9f 2c e9 bd f6 e0 52 3d 65 c6 bf bd
       0.8871771 -0.11385464 0.05148407 -0.09364013
000330 ae 79 e4 3e c7 21 2f bf 26 b4 85 3f b7 7d fb 3e
       0.44624084 -0.68410915 1.0445602 0.4911935
000340 5d e4 d5 3e 62 47 9e 3e 18 00 2c 3f ee 42 60 bd
       0.4177579 0.30913836 0.67187643 -0.05475133
000350 bd 0a 7c bf 3a e3 df 3e 4c 04 2f be 04 87 90 be
       -0.98453885 0.43728048 -0.17091483 -0.2822801
000360 a1 10 6b bf 29 18 4a 3f 98 26 53 3f 2c bb 17 3f
       -0.9182225 0.78943115 0.82480764 0.59269977
000370 ed 22 50 3f 1e 5b 09 bf 2d e4 b7 3e fe a4 38 be
       0.8130329 -0.5365466 0.35916272 -0.1803169
000380 f5 c4 22 bf ac 9b 15 be e3 86 45 3c 53 5a de be
       -0.6358178 -0.14610165 0.012056085 -0.43428287
000390 c6 c7 66 be cd 4e 84 3f fe 19 c5 be c6 1a 9e 3f
       -0.22537145 1.0336548 -0.38496393 1.2351921
0003a0 2f 55 6d 3f e6 96 97 bf 71 bd 34 bd 38 5b 6c 3f
       0.92708105 -1.1842926 -0.044125978 0.9232669
0003b0 4f 38 3b 3d a2 99 b3 3c 21 8d da 3e 66 c6 9b 3e
       0.045707997 0.021923844 0.42685798 0.30424803
0003c0 af f0 2e bf 1a 86 01 bf 41 86 65 3f 2b 66 8f 3e
       -0.68336004 -0.5059525 0.8965798 0.28007635
0003d0 f4 fa 05 bf 51 50 43 be cc 54 00 3f 5b 26 1e bf
       -0.5233605 -0.19073607 0.5012939 -0.61777276
0003e0 81 78 ab bf f1 e5 3b 3f c5 ca 44 bf df 3b 1a bf
       -1.339615 0.7339774 -0.768719 -0.60247606
0003f0 88 23 36 bf bf 56 13 3e d5 95 5a 3f b6 00 a3 bf
       -0.71147966 0.1438856 0.85384876 -1.2734592

lstm.weight_hh_l0 f4 [256, 64]
000000 de a0 66 3d 8b d7 3f bf 7b 4d f9 bf aa 7f a7 3d
       0.05630576 -0.7493827 -1.947677 0.08178647
000010 55 8c b7 be 7a e2 a1 bf 22 6b 25 3f 71 04 1a bf
       -0.35849252 -1.264724 0.64616597 -0.6016303
000020 1f 6a 32 3f c8 f9 45 3f 53 8b 33 3f 57 04 6d 3f
       0.6969318 0.7733426 0.70134467 0.9258475
000030 4f ea 0d bd d1 0e 15 c0 b6 63 9a bf b3 2e 7c 3f
       -0.034647282 -2.3290293 -1.2061679 0.9850876
000040 ef 2d 3c bf 9f 03 05 bf 9c 98 7c 3f b5 90 ad bc
       -0.7350759 -0.5195865 0.98670363 -0.021187166
000050 71 0c db 3d f5 8f 26 3f 4e 57 52 bf e0 a5 3f bf
       0.106957324 0.6506341 -0.82164466 -0.7486248
000060 49 07 ef 3f 9b d2 20 3f 28 b4 a7 be e5 7c df 3e
       1.8674098 0.6282136 -0.32754636 0.43649974
000070 df 84 9f 3f 9c cb 5b 3f fe 61 21 bf 6b 28 c1 3e
       1.2462424 0.8585756 -0.6304015 0.3772615
000080 9a c1 ba 3e e5 3c 55 bf 7e d7 08 3e 19 89 8f 3f
       0.3647583 -0.8329604 0.13363454 1.1213714
000090 72 21 39 3e 68 2a 1b 3d ba 1a 2b 3f c5 c1 c6 be
       0.18079165 0.03788224 0.66837656 -0.3881971
0000a0 48 39 5c bf a0 20 3c bf 98 66 0a bf 59 b9 c9 3e
       -0.86024904 -0.7348728 -0.54062796 0.39399222
0000b0 43 b0 92 bf 57 ef 12 be 92 90 9c be 07 81 ac be
       -1.1460041 -0.14349113 -0.30579048 -0.3369219
0000c0 40 43 64 be 16 5e 2c 3f c0 af 9e be b6 04 64 3f
       -0.22291279 0.67331064 -0.30993462 0.8906969
0000d0 d8 1b f7 3e dd d4 8d 3f db cf 42 3e 21 63 de 3e
       0.4826343 1.1080586 0.19024603 0.43435004
0000e0 f7 1d 2e bf af d2 ca 3f f3 55 b7 be 90 ee 7a bf
       -0.6801447 1.5845546 -0.35807762 -0.9802027
0000f0 0b 8c 17 bf 6e 16 4a 3f 8c 4c f0 bf a5 38 16 be
       -0.59198064 0.78940475 -1.877336 -0.14670046
000100 1f 3d 9f bf 3b 48 4a bf 49 72 1f bf 2c 51 05 3e
       -1.2440528 -0.79016465 -0.6228376 0.13019246
000110 16 aa 00 bf 20 40 28 bf b5 a0 e8 3e 00 0f 02 bf
       -0.5025953 -0.65722847 0.4543511 -0.5080414
000120 5d 04 a2 3f 92 db 45 3e 29 1c 33 3f e6 34 67 3f
       1.2657582 0.1932204 0.69964844 0.9031509
000130 7d 20 c2 3f 74 8d 0d 3f bf f9 16 3e e3 de e0 3e
       1.5166165 0.55293965 0.14743708 0.4392005
000140 90 a4 bc 3c 5c 72 06 be 42 b5 66 3e 7a ba 13 3f
       0.023027688 -0.13129562 0.22530082 0.57706416
000150 53 9a 28 3e d2 69 59 bf 23 a0 33 3e c3 22 68 3f
       0.1646512 -0.84927094 0.17541556 0.9067804
000160 ad cf e0 3f cb 0c 8d 3e 26 e0 ff be 37 86 84 bf
       1.7563378 0.27548823 -0.499757 -1.0353459
000170 88 cf c6 bf 9a 99 f7 3e 90 5b a4 3e a2 4b f9 bf
       -1.5532084 0.48359376 0.32101107 -1.9476206
000180 7a 04 6a be 58 e3 d8 3e bb ad df 3d 57 97 fc be
       -0.2285327 0.4236095 0.10921808 -0.49334213
000190 43 50 87 3e ea db 05 bf 53 20 75 bd 50 6d 8a 3e
       0.26428422 -0.5228869 -0.05984528 0.27036524
0001a0 33 23 38 3e 86 7f 9f 3e 1b fe 09 bf 2a 01 31 bf
       0.17982177 0.3115198 -0.5390336 -0.691424
0001b0 9c 19 17 bf 6d ee d1 be 6c 7b 17 3f 64 27 fc be
       -0.5902345 -0.41002217 0.591727 -0.49248803
0001c0 e3 a2 1a 3f f5 ba ef be 7c b2 45 be 72 80 b5 b9
       0.60404795 -0.46822324 -0.19306368 -0.0003461871
0001d0 bf e6 79 bf b4 40 f5 3d 31 4f 86 bf 24 17 50 3f
       -0.97617716 0.11975232 -1.0492917 0.8128531
0001e0 09 96 81 3f e2 b2 4c be be 60 4b bf 06 cd 1e 3e
       1.0123912 -0.19990113 -0.7944449 0.15507898
0001f0 28 d0 de 3e 46 de 8a 3d af 8e a4 3e b8 aa 91 bf
       0.43518186 0.067806765 0.3214011 -1.1380224
000200 f1 6d 08 3f cd 43 ce 3e ee d6 27 3f ad 0f 0c 3f
       0.5329276 0.40286103 0.6556233 0.5471142
000210 44 02 de 3d 9b 8a 97 be c0 ee f5 3e 1c 04 17 bf
       0.10840276 -0.29597935 0.48033714 -0.58990645
000220 7d 35 3f be c1 56 10 be 64 b0 77 3e 49 7f 3f be
       -0.18672748 -0.14095594 0.24188381 -0.18700899
000230 0e 75 71 bf 42 0e da 3e 27 b4 44 3e 4d a8 df bc
       -0.94319236 0.42589003 0.19209348 -0.027301932
000240 23 a4 ec be 73 c7 4a be 48 8a bc 3e 06 e8 71 bd
       -0.46218976 -0.19802646 0.3682425 -0.059059165
000250 33 cd 8c 3e 1a 9e 8d be c7 db 9c be 6f a6 85 3d
       0.27500305 -0.27659684 -0.30636427 0.06525885
000260 e7 aa 90 bf fc 6d 7b 3e b6 a8 4b 3d d0 75 5a 3f
       -1.1302155 0.24553674 0.049721442 0.8533602
000270 92 42 b3 3c 02 03 94 bd d6 6c d1 be f6 02 fd be
       0.02188233 -0.07227136 -0.40903348 -0.49416322
000280 66 ed 88 3e 8a 20 2e be ab b7 a6 be 4e 9f f1 3e
       0.2674362 -0.170046 -0.32562003 0.47191852
000290 c0 9b a5 bd e7 50 3a 3d 42 aa 5b be d0 15 0f 3f
       -0.080863476 0.04548731 -0.21451667 0.5589266
0002a0 2f a2 3d be 1b 9a 3b be 8a 3e 34 bf 3a db bf bd
       -0.185189 -0.18320505 -0.7040793 -0.09367986
0002b0 86 50 96 bf b7 e4 4a be 03 50 b0 3e be c4 a7 be
       -1.1743324 -0.1981381 0.34436044 -0.3276729
0002c0 8d a9 c6 be 9f 5c 1f 3f 2c 9a 2c 3e cd 9f 46 3d
       -0.38801232 0.62250704 0.16855687 0.04849224
0002d0 ba 7b cd 3e a6 9e c3 3d a7 88 64 3d 57 93 92 be
       0.40133458 0.09551744 0.055794384 -0.28628036
0002e0 e8 97 8e 3d d7 cb bc 3e 9f 71 9b bc 79 70 f8 3e
       0.069625676 0.36874267 -0.018975077 0.4852331
0002f0 c1 85 bb 3d 12 7b 15 3f 0d 77 c7 be 81 d4 ed be
       0.09156371 0.58390915 -0.38958016 -0.4645119
000300 e0 35 27 3f 29 60 8a 3e f5 66 18 bc d4 93 c5 3e
       0.6531658 0.2702649 -0.009301891 0.38589346
000310 f7 3c 53 3e 26 59 56 3f 8a 4e e5 bd b4 67 53 bf
       0.20628725 0.8372978 -0.11196621 -0.82580113
000320 d5 78 08 bf 7a 99 c3 bd ad d2 8b 3e 9b af a3 be
       -0.53309375 -0.09550758 0.2730917 -0.31969914
000330 1a 83 1d be 01 31 3d 3f 3f 6d 5a 3f ac ea af 3e
       -0.15382043 0.739029 0.85322946 0.34358728
000340 b9 88 a8 3e 2d 7f 8d 3e 01 62 b0 bf b1 cb 6b be
       0.3291681 0.2763609 -1.3779908 -0.23026921
000350 0f 1b 23 bf 3f 0a c4 3d 32 e7 13 3e 77 6e ea 3c
       -0.63713163 0.09572267 0.14443663 0.028617127
000360 81 3b 32 bf 6c e4 33 be 62 0f a5 3e 0e b3 02 3e
       -0.69622046 -0.17567605 0.322383 0.12763616
000370 f3 53 0d be 13 c0 2c bf 3e 59 e1 be 21 d5 17 bf
       -0.13801555 -0.6748058 -0.440134 -0.59309584
000380 13 3d 8f be 7d 1f 02 40 7f 29 fa 3e c2 a1 30 3e
       -0.27976283 2.033172 0.48859784 0.17249206
000390 46 99 05 3f d1 6b 3f 3f 7c f0 b2 3e da c2 8e 3e
       0.52187 0.7477389 0.349491 0.27883035
0003a0 11 c0 f3 bc 29 8e 08 bf af 6d fa 3e bc f2 8d be
       -0.02975467 -0.5334192 0.48911807 -0.27724254
0003b0 2d 56 ca 3c 19 3a 71 bf 44 ba c1 3e 82 27 cf 3d
       0.024699295 -0.94229275 0.37837422 0.101149574
0003c0 f2 b7 19 3f 18 42 44 bd d2 a0 ac 3e f8 14 d3 be
       0.60046303 -0.047914594 0.33716446 -0.41226935
0003d0 da 5b ad be 94 3b 01 bf 10 8e 5f 3f 2b b6 86 3e
       -0.3385914 -0.50481534 0.87326145 0.26310858
0003e0 ac dc aa 3e 23 1c e3 3e 25 e3 6c 3e 00 57 e5 be
       0.33371484 0.44357404 0.23133524 -0.44792938
0003f0 9c eb a7 3e 7e ba 4a bf a2 b3 f7 bc 6d cc 22 bd
       0.32796943 -0.79190814 -0.030237023 -0.039745737

lstm.bias_ih_l0 f4 [256]
000000 dc c0 5f 3f 50 79 ac 3c 87 b4 90 be a4 72 c1 3e
       0.87403655 0.02105394 -0.2826273 0.37782776
000010 97 bc 06 3f 05 f6 88 bf 1c b5 64 3e 8d c6 b4 be
       0.52631515 -1.0700079 0.22334713 -0.35307732
000020 1d cb 7b bf a2 34 f0 3e b5 14 aa 3f 4c fc 0f be
       -0.983568 0.46915156 1.3287569 -0.14061087
000030 45 15 99 3e ff 81 20 bf 48 b6 30 3f f4 51 bd 3e
       0.2989904 -0.6269836 0.6902814 0.36976588
000040 80 06 2d bf 6b 15 93 3e 55 d1 f7 be 52 94 48 3e
       -0.67588043 0.28727278 -0.48401895 0.1958783
000050 0f 96 89 be 66 c9 95 be 06 f1 42 3e f5 6b 23 3f
       -0.26872298 -0.29255217 0.19037256 0.63836604
000060 2b 7f c1 bd 6a da 89 be 76 43 ae be c1 e1 ed 3d
       -0.094480835 -0.2692445 -0.34035844 0.11615325
000070 ed f0 42 bf d9 16 26 3f 48 db 4f bf 68 ce 68 3d
       -0.76148874 0.6487861 -0.8119397 0.05683747
000080 4e cb f6 3e 89 35 59 be f9 89 12 3f 44 33 a2 3e
       0.48201984 -0.21211828 0.5724178 0.31679738
000090 b2 2e 36 3f 8e 85 45 be bd 7c 03 be d0 28 32 3f
       0.71165 -0.19289228 -0.12840553 0.69593525
0000a0 42 b6 2f bf d0 0f 7e 3f 16 3a a1 be 9e 43 10 bf
       -0.6863748 0.9924288 -0.3148963 -0.56353176
0000b0 38 c7 cc 3e 36 72 83 3e 83 2d eb 3e cb 49 96 bf
       0.39995742 0.25673074 0.4593316 -1.174127
0000c0 4c 19 68 3f bf 78 67 3f 96 5b 22 bf 8c b9 bd 3e
       0.906636 0.9041862 -0.63421 0.37055624
0000d0 39 8b 52 3e 78 86 4b bd 33 38 70 3f 9f 1f 27 3f
       0.20560922 -0.049688786 0.93835753 0.65282625
0000e0 be ff 8c 3f ee e7 6b bf 0c ae 70 3f 2f 00 39 3c
       1.1015546 -0.9215077 0.94015574 0.011291548
0000f0 06 36 c3 3e b4 2a 87 3e f4 74 b0 bd 2e 0c 01 3f
       0.38127154 0.26399767 -0.08616057 0.5040921
000100 09 6b b0 bb f2 2b d0 be 94 c4 2d 3f 65 ba d2 3d
       -0.0053838533 -0.40658528 0.6787808 0.10289458
000110 ec b1 85 3b 10 3b e5 3d 3f 59 26 bf 9c 13 b3 3d
       0.004080048 0.11192906 -0.6497993 0.087439746
000120 a2 bb 4c 3f 36 4a 20 bf 30 f0 b5 be bf 7f 0f be
       0.79973805 -0.62613237 -0.3553481 -0.14013575
000130 27 6a df bd 7f 1a 06 3e 23 a7 14 bf 92 9d c0 3e
       -0.10908919 0.13096045 -0.5806753 0.37620217
000140 ef 2c 31 bf f9 e6 6a bf 5d d0 4d bd 88 b1 4a bf
       -0.6920919 -0.91758686 -0.05024754 -0.7917714
000150 d6 1e bf 3e e6 de 21 bd 34 44 69 bf 8f d7 6d bf
       0.37328213 -0.039519213 -0.91119695 -0.9290704
000160 20 1f 3c 3e a5 33 99 bf 8c b3 82 be 5a c0 6c be
       0.18371248 -1.1968886 -0.25527608 -0.23120251
000170 e5 c3 f3 3e c0 1e e2 be 55 53 90 be 77 6a 04 be
       0.47610393 -0.44164085 -0.28188577 -0.12931238
000180 0b 55 f5 be 0f 3f 98 3e 6b 0c d6 be 2d 7f 97 bf
       -0.47916445 0.2973561 -0.4180635 -1.1835686
000190 df d2 17 bf 39 e8 49 bf 33 85 27 bf bb 48 5b bf
       -0.5930614 -0.7886997 -0.6543762 -0.8565785
0001a0 5f 74 08 be 37 9b 8c bf 05 e7 2b bf 33 05 65 bf
       -0.13325642 -1.0984868 -0.6714938 -0.8946106
0001b0 7f 68 2b be a1 88 b6 bf 9a 4f 32 bf 93 19 bb 3d
       -0.16739081 -1.4260446 -0.6965271 0.09135737
0001c0 12 68 23 bf 57 54 bb bf 88 df 8c be a7 39 76 bf
       -0.63830674 -1.4635113 -0.2751429 -0.9618172
0001d0 c0 15 91 3d ff 3b b8 be 0f 93 9c be 9e 78 9a bf
       0.070842266 -0.35983273 -0.30580947 -1.206806
0001e0 23 54 53 bf 76 dc 8f 3d 80 52 42 bf 11 0f 10 bc
       -0.8255026 0.070244715 -0.75907135 -0.008792655
0001f0 69 6b a9 bf a8 61 79 bf 7d 5c 46 bf f5 bd 8a bf
       -1.3235904 -0.97414637 -0.77484876 -1.083922
000200 3e 05 1c bd cb 83 86 3b 33 80 1f bb 40 07 99 3c
       -0.038090937 0.0041050664 -0.0024337887 0.018680215
000210 8a fc 81 3d c6 06 06 bf a2 d2 15 bd a6 10 25 3e
       0.06346996 -0.52354085 -0.03657783 0.16119632
000220 ac 1a d1 be e5 ee d1 3e 70 85 9f 3e 51 3b 43 bd
       -0.40840662 0.41002575 0.31156492 -0.04766399
000230 11 30 05 bd 2d b6 c8 bc 7a 98 f3 be 61 c1 d2 3e
       -0.032516543 -0.02450093 -0.47577268 0.4116316
000240 2f 09 17 be 08 f8 36 3c 48 a4 3a 3d 67 8d af 3e
       -0.14749597 0.011167534 0.045566827 0.3428757
000250 6c 2f 40 3d 89 ac 3a be 4a 3e c4 3d aa 96 b5 3e
       0.046920225 -0.1822988 0.09582193 0.3546651
000260 4a 74 cd bd f7 92 fe 3d 4a 2e 3b 3f a8 a8 3d 3e
       -0.10031946 0.12430375 0.73117507 0.18521369
000270 f1 b0 a3 bf 7c 7b 82 be ab 25 ea be 8c 1e 8a bd
       -1.2788373 -0.25484836 -0.45731863 -0.067441076
000280 9c 18 40 3e b8 43 c6 3d 08 6e f2 3d 19 91 ac be
       0.18759388 0.09680885 0.11837393 -0.3370445
000290 f6 03 aa be 8c b7 f5 3e 9f e9 2c be 36 7c a3 bd
       -0.33206147 0.47991598 -0.16885994 -0.07982676
0002a0 b4 0c 78 3d 5b 95 53 be 6c e9 a3 3e c8 37 a1 bd
       0.06055899 -0.20662443 0.32014024 -0.078719676
0002b0 be 3a 62 3f ef eb 53 be 5b ca ef 3e bf 4a 91 bd
       0.88370883 -0.2069547 0.46834072 -0.07094335
0002c0 1b 69 98 3c e5 8c 3f 3e d1 d5 a9 be fc 3f fe 3e
       0.018604806 0.18706091 -0.3317094 0.4965819
0002d0 5a 80 86 be d5 59 81 3e 1c 81 e3 bd 83 1c 05 3e
       -0.262698 0.2526385 -0.1110861 0.12999158
0002e0 bb 3e 01 3e 1e c7 26 3f cd e5 dc be 8e cb 08 be
       0.12621586 0.6514758 -0.43144074 -0.133589
0002f0 e9 3c 83 bc 85 e1 f4 3e 06 90 79 3e 5e 35 5f be
       -0.016020255 0.47828308 0.24371347 -0.21797702
000300 46 91 ab be cb 40 9c bd ae e2 ae 3e 8b fe 18 3e
       -0.33509272 -0.07629546 0.34157318 0.1494085
000310 7f f2 f9 be 50 8c 66 be 43 fa 8e 3e 79 8c 66 be
       -0.48817822 -0.22514462 0.2792531 -0.22514524
000320 78 4e 16 3f ec b9 5f 3f ee a2 92 3d 97 ef a4 3d
       0.58713484 0.8739307 0.071599826 0.08053511
000330 01 e5 ea bc 06 e1 a7 3e 13 03 f0 3e 03 fc e4 bc
       -0.02867365 0.32788867 0.46877345 -0.0279522
000340 47 ea 28 3e de 20 de be 1b ae dc 3e da b4 bb 3e
       0.1649562 -0.4338445 0.43101582 0.36661416
000350 3e c5 c3 be d7 ab 26 be 3c 85 61 3e 93 1e b9 3e
       -0.3823642 -0.16276489 0.22023481 0.3615614
000360 3b 58 11 be ab 21 1e be 5c b7 9b bf ab d1 85 be
       -0.14193814 -0.15442531 -1.2165332 -0.26136526
000370 89 8c 81 be 63 93 1e 3f 1a b0 fb be 4b 2b 1a bf
       -0.25302532 0.61943644 -0.49157792 -0.6022231
000380 bb 03 ff be d4 17 f4 bd 8f 7c c3 bd f4 3b 99 be
       -0.49807534 -0.11918607 -0.09545242 -0.29928553
000390 39 1c 99 3e 99 68 7a bc e4 13 b4 bd 8d 29 68 be
       0.29904345 -0.015283727 -0.08792856 -0.226721
0003a0 c8 49 e2 be 66 89 d0 3e 56 40 cb 3d 49 9e c6 be
       -0.44196916 0.40729827 0.099243805 -0.38792637
0003b0 3a 67 4f 3f 9e ae 4b 3e a4 a7 15 3f 8c da bf be
       0.81016886 0.1989083 0.58458924 -0.37471426
0003c0 a7 dc b7 3d a2 9c 2d 3f 47 3e 4e be 4b 7e 9a be
       0.08977633 0.6781713 -0.20140944 -0.3017448
0003d0 f6 cc 00 3e 50 84 fd be c8 d3 e0 be f0 eb 92 3e
       0.12578186 -0.4951501 -0.43911576 0.2869563
0003e0 66 78 3a bb 44 44 2c 3e e4 55 0c 3f 7e 73 00 3f
       -0.002845311 0.16822916 0.5481856 0.5017623
0003f0 2e 71 64 3f c5 c3 18 3f b1 1e 54 bf b7 51 9c 3c
       0.892352 0.5967372 -0.8285933 0.019081933

lstm.bias_hh_l0 f4 [256]
000000 76 3d 83 3f e2 2f a9 bd 00 a7 99 be 27 21 b3 3e
       1.0253131 -0.08261086 -0.30010223 0.3498623
000010 f3 48 d0 3e ca 4b 85 bf 29 5e f6 3d f8 24 a6 be
       0.40680656 -1.0413754 0.120296784 -0.3245008
000020 29 46 67 bf 37 32 f6 3e 8c c6 b6 3f ec c8 e5 bd
       -0.9034143 0.48085186 1.4279342 -0.112199634
000030 fd 5a 97 3e 25 b3 2b bf e7 f0 01 3f 09 60 b8 3e
       0.29561606 -0.6707023 0.5075821 0.3601077
000040 e3 f8 27 bf b4 ba 20 3e c9 22 cc be 46 0e 5d 3e
       -0.65614146 0.15696222 -0.3987029 0.21587476
000050 00 76 c1 be 5b 33 a8 be f6 00 b6 3e 8e 7e 35 3f
       -0.3778534 -0.3285168 0.35547608 0.7089623
000060 cb 46 88 bb c9 db 86 be 31 8e 91 be 9c 1f 00 3e
       -0.00415883 -0.26339558 -0.28428796 0.12512058
000070 a5 00 1a bf 14 5d 25 3f 9c ee 59 bf b1 84 03 3e
       -0.60157233 0.6459515 -0.85129714 0.12843587
000080 fa 91 23 3f fb 4c 8c be f1 9a 17 3f 7c e5 c1 3e
       0.6389462 -0.2740248 0.59220797 0.37870395
000090 a0 d3 39 3f a2 07 c9 bc f8 6c bc 3d 61 e3 2d 3f
       0.7258854 -0.024539772 0.09200472 0.6792508
0000a0 17 ee 55 bf af eb 89 3f 3d 42 6c be f5 2f 01 bf
       -0.8356642 1.077505 -0.23072143 -0.504638
0000b0 44 a2 e9 3e e8 d0 83 3e 88 e9 f4 3e 74 90 9e bf
       0.4563161 0.2574532 0.4783442 -1.2387834
0000c0 f6 0e 4a 3f 9d 93 65 3f 53 56 41 bf d2 37 c0 3e
       0.7892908 0.89678365 -0.75522345 0.37542588
0000d0 e5 42 82 3e 6d 1f 78 bd e4 7a 8f 3f 00 9b 24 3f
       0.2544166 -0.060576845 1.1209378 0.6429901
0000e0 f1 71 9c 3f ce be 7f bf ad 87 64 3f c8 f1 2a be
       1.2222272 -0.9990052 0.89269525 -0.16693795
0000f0 d2 d9 d7 3e 42 9d 9a 3e 50 ca 7b bd d0 51 87 3e
       0.4215837 0.30198103 -0.061472237 0.26429605
000100 8d 4b 71 3d 84 37 e2 be 6e 16 11 3f 7c 1c 46 3e
       0.05890994 -0.4418298 0.5667485 0.19346803
000110 f2 c6 aa bc 8f 4d 53 3e b6 4d 0e bf ac 28 cd 3d
       -0.020846818 0.20635055 -0.5558733 0.10017523
000120 f6 66 4d 3f 8e 65 36 bf 90 ac 52 be e8 94 5f bc
       0.8023523 -0.7124871 -0.2057364 -0.013646342
000130 75 ff ca bd af c7 13 bc aa 7e 09 bf 83 95 ab 3e
       -0.09912006 -0.009019776 -0.537089 0.33512506
000140 21 a6 4a bf 73 a6 43 bf 81 59 16 be 85 a3 58 bf
       -0.7915974 -0.76425856 -0.1468258 -0.8462451
000150 2f ce bd 3e 01 a0 06 be 1d b4 86 bf ea d3 44 bf
       0.37071368 -0.13146974 -1.0523716 -0.76885855
000160 9c b6 09 3e fe ff a1 bf 6b c4 80 be 8d 69 7b be
       0.13448566 -1.2656248 -0.25149855 -0.24551983
000170 5b 67 10 3f 9f a7 11 bf 48 14 8c be 61 da d5 bd
       0.5640771 -0.56896394 -0.27359223 -0.10442043
000180 35 2b 00 bf c8 98 2e 3e 64 03 fc be 3c e1 84 bf
       -0.5006593 0.17050469 -0.49221337 -1.0381236
000190 19 57 1d bf fd 88 45 bf 7e 37 2c bf 41 b4 4b bf
       -0.61461025 -0.7716215 -0.67272174 -0.7957192
0001a0 81 71 31 be 2a a7 86 bf dd 47 ec be 53 ef 51 bf
       -0.17328455 -1.0519764 -0.46148577 -0.82005805
0001b0 b7 25 80 3d 5b 92 cb bf b9 b6 23 bf 9e 61 02 3e
       0.062571935 -1.5904039 -0.6395069 0.1273255
0001c0 1f 1e 53 bf a7 2f ab bf c8 54 fc bd e7 ca 70 bf
       -0.82467836 -1.3373917 -0.12320858 -0.94059604
0001d0 1b 88 40 3e e2 df b2 be 53 67 7f be 77 67 90 bf
       0.1880192 -0.34936434 -0.24941759 -1.1281575
0001e0 46 3e 3e bf 48 8d 2f bd 62 bf 30 bf 9e cf 88 3d
       -0.7431377 -0.042859346 -0.69042027 0.06680225
0001f0 64 82 9f bf 13 96 8f bf 36 81 40 bf 67 d0 89 bf
       -1.2461667 -1.1217674 -0.7519716 -1.0766724
000200 de ba b1 3d 84 6a 56 bc 7c e9 27 be 37 b2 9d 3b
       0.0867822 -0.013086919 -0.16397661 0.0048125046
000210 61 ea 84 3e 83 81 f8 be c5 89 25 bd 72 8e b3 3d
       0.25960067 -0.4853631 -0.04041459 0.08767404
000220 51 ef 78 be fe 30 d0 3e 09 68 9b 3e c0 79 53 3c
       -0.24310042 0.40662378 0.3035281 0.012907445
000230 36 5a bb bd 3e ff 17 3c 31 69 a5 be f0 81 d9 3e
       -0.09148066 0.009277163 -0.32306817 0.42481947
000240 7d 01 0f bd e7 cc a5 bd c9 eb 8d 3d 61 85 b3 3e
       -0.03491353 -0.08095723 0.06929738 0.35062698
000250 8d 24 72 ba 7d 83 39 be 2e 19 75 3e a3 25 7c 3e
       -0.0009237014 -0.18116565 0.23935387 0.24623732
000260 ed 23 06 3b c3 f6 dd 3d 6c f3 2d 3f e8 c0 43 3d
       0.002046819 0.10838082 0.6794956 0.04779139
000270 b0 4b a1 bf 36 b8 b1 be e0 ec f0 be 89 d6 dd bd
       -1.2601223 -0.34710854 -0.4705572 -0.10831935
000280 75 38 dd 3d 14 5f e3 bd ea d7 98 3d 4d e0 8a be
       0.10801784 -0.11102119 0.07463057 -0.27124253
000290 bc 0e c5 be 4c 19 e4 3e a4 f7 78 be da c2 17 be
       -0.38487804 0.4455055 -0.24313217 -0.14820424
0002a0 a1 e1 80 bd d7 97 68 bd e7 44 4e 3e 8e 5b 2b be
       -0.06293035 -0.05678543 0.20143472 -0.16734144
0002b0 b1 e7 52 3f 73 c0 1a be 26 7c 03 3f 4b d7 db bd
       0.82384783 -0.15112476 0.5136131 -0.10734423
0002c0 59 9f 96 3d a7 2b 9a 3e 1d 43 21 be 06 eb eb 3e
       0.07354612 0.3011143 -0.15748258 0.46077746
0002d0 bc b2 b9 be f4 de d9 3e 71 25 45 bd 3a 18 10 3e
       -0.36269176 0.42552912 -0.04813141 0.14071742
0002e0 39 b2 89 3e 86 2b 0b 3f 46 2c d4 be 46 83 ca bd
       0.26893786 0.54363286 -0.41440028 -0.0988832
0002f0 3d b9 0a bd 3a 4c 95 3e 00 38 d9 3e 63 e9 c6 be
       -0.033868063 0.2915972 0.42425537 -0.38849935
000300 35 dd a8 be 78 b5 fa bd 94 d4 d5 3e 4e 9d 1d 3e
       -0.32981268 -0.12241644 0.41763747 0.15392038
000310 ae 4e be be ac cf 97 be 63 6b f1 3d f8 0b 8d bd
       -0.37169403 -0.2965063 0.117880605 -0.068870485
000320 ae 64 17 3f 2c 6e 51 3f 04 d2 19 3e cb 75 57 3e
       0.59138 0.81808734 0.15021521 0.21041028
000330 b4 32 3b 3d fc 26 38 3e 3b c2 91 3e 52 42 18 be
       0.04570265 0.17983621 0.284685 -0.14869049
000340 37 cc 42 3e 52 e0 c5 be 5a 79 d8 3e dc 81 68 3e
       0.19023214 -0.38647705 0.42280084 0.22705787
000350 bd 94 d0 be d7 c1 6c be 8a c7 0d bc 85 cf a0 3e
       -0.40738478 -0.23120819 -0.008653531 0.31408325
000360 ac 60 a8 bd e2 03 a7 bd 5e eb 98 bf 0b b5 56 be
       -0.08221564 -0.081550375 -1.1946828 -0.209675
000370 19 83 af be bb f0 1b 3f 68 67 8f be 10 c6 2d bf
       -0.34279707 0.609142 -0.2800858 -0.67880344
000380 60 b8 00 bf 9b f6 50 bb e3 74 56 be 1b 29 9c be
       -0.50281334 -0.003188527 -0.20943026 -0.3050011
000390 f8 85 af 3e be f5 e8 bd 9d 54 a6 bd 8f a0 81 be
       0.34281898 -0.113749966 -0.081216075 -0.2531781
0003a0 1d c7 c8 be 73 bc c4 3e 77 97 8f 3d 8a 60 93 be
       -0.3921441 0.38425025 0.070113115 -0.2878459
0003b0 b2 d7 3f 3f 3f b8 6b 3e d6 44 09 3f 94 56 f5 be
       0.749385 0.23019503 0.5362066 -0.47917616
0003c0 59 d1 2e bd cb 3f 41 3f 9b e9 c2 bd 9f cc 56 be
       -0.04268012 0.75487965 -0.09517213 -0.20976494
0003d0 58 0f fe 3d f9 f5 fc be af ec 15 bf e5 38 69 3e
       0.1240527 -0.49406412 -0.58564276 0.2277561
0003e0 88 82 ba 3d 1d b0 54 3e 7e c7 ef 3e fe bc d8 3e
       0.09106928 0.20770307 0.46831888 0.4233169
0003f0 85 9f 8a 3f 6c 52 cc 3e f6 77 60 bf 99 09 dd bd
       1.0829931 0.39906633 -0.87683046 -0.10792846

lstm.weight_ih_l1 f4 [256, 64]
000000 e4 31 19 3f 4c 5b 9d 3e 7e 09 81 bf 35 09 97 bd
       0.5984175 0.30733716 -1.0081022 -0.07374803
000010 4f eb 80 3e 75 31 d7 be 3f a0 1c 3e 0d 01 d8 be
       0.25179526 -0.4202992 0.15295504 -0.42188302
000020 49 54 33 be b7 2a 6a bd 1b 1b 79 3e ac fa d4 3e
       -0.17512621 -0.057169642 0.24326746 0.41597497
000030 85 d4 7a 3e 1c 1b ef bd 2c 4c 00 3c dd 5c 00 3c
       0.24495132 -0.116750926 0.007830661 0.00783464
000040 23 4b 98 3e 24 0b 39 3e a2 d0 7a 3d 0c bf b2 be
       0.29744825 0.18070656 0.061234124 -0.34911382
000050 90 19 d7 3f e6 f2 81 be c2 de 84 be 0b 81 22 3d
       1.6804676 -0.2538063 -0.259512 0.039673846
000060 a6 fa 14 bf 26 08 e5 3e 35 61 8f 3f d5 13 84 3e
       -0.5819496 0.4473278 1.120154 0.2579638
000070 9d f1 38 3e bf bd 0f be cb ec b5 bd 2f e7 b3 be
       0.18060918 -0.14037226 -0.08883055 -0.35137317
000080 ae 52 9b be 67 f4 86 bf a6 c8 52 bd 34 63 8c 3d
       -0.30336517 -1.0543336 -0.051460885 0.06854859
000090 ad 89 9a be 7d 98 20 be a1 7b 04 bf e3 fd 6e 3c
       -0.30183163 -0.1568317 -0.5175114 0.0145868985
0000a0 d1 fd 40 3d 1e 49 1e 3d 7d cf be 3d 8c 85 f4 3d
       0.04711706 0.03864395 0.09316919 0.119395345
0000b0 81 94 a5 be 7b a1 37 3e 7f 80 70 be 50 9f af be
       -0.32339862 0.17932694 -0.23486517 -0.34301233
0000c0 58 40 4a be 07 38 0b be 54 97 c7 be cd dc a9 3d
       -0.19751108 -0.13595591 -0.38982642 0.082940675
0000d0 3e 77 62 be 8c e2 99 3e a8 7d 08 bf 04 df a6 bd
       -0.221158 0.30055654 -0.53316736 -0.081480056
0000e0 08 0d 6c 3e e0 e4 b9 3e 66 e2 50 3e 40 fc f5 3d
       0.23051846 0.3630743 0.20398864 0.120110035
0000f0 7d 2c d3 3d 38 2d c6 3e 88 e2 aa bf 58 f3 1e bd
       0.1031122 0.38706374 -1.3350382 -0.03880629
000100 f7 bd 28 3f 77 4f e3 bd 77 58 ae bd c6 ed ab bd
       0.65914863 -0.11099141 -0.08512967 -0.08394961
000110 15 70 0d bf fc c3 01 bf 46 66 80 3e e4 ab fd 3d
       -0.5524915 -0.50689673 0.25078028 0.12386301
000120 ea 3f 40 3e 66 3c 62 bf 9a 8b 84 be 6f 58 cb be
       0.18774381 -0.8837341 -0.25887758 -0.39715907
000130 a1 5c 92 be 77 87 1c bf a2 99 bf 3e 16 73 50 3e
       -0.28586295 -0.611442 0.374219 0.20356402
000140 3a 3d d8 be 90 b8 a0 bd 0f ff ce be e1 1e 48 bd
       -0.42234212 -0.078477025 -0.4042897 -0.048857573
000150 20 b9 f5 3e 88 2f 28 3c a8 75 86 3b ee cd 1b 3e
       0.47992802 0.010265239 0.004103381 0.15215275
000160 08 59 f3 3d 66 3a 92 be 7c df 96 be b5 f0 84 bd
       0.11882216 -0.2856018 -0.2946738 -0.06491224
000170 f9 d7 5c 3e 66 b9 26 be 25 22 fe 3b 10 b8 73 3d
       0.21566762 -0.16281661 0.007755535 0.059501708
000180 d6 98 a7 3b 85 75 64 3e dd 99 e4 3e 3d 1d 93 be
       0.005114655 0.22310455 0.44648638 -0.28733245
000190 bf f4 b5 bd 75 41 82 bd 1b 73 7f be 8a 7e 5f 3e
       -0.08884572 -0.06360141 -0.24946253 0.21825615
0001a0 2e 6f aa be 6b 15 cc 3e 1e 5e 91 3e 1f 50 a1 bc
       -0.33287948 0.3986009 0.28392118 -0.019691525
0001b0 a4 f3 80 3e 8c a0 df 3e 48 87 6f be 99 91 98 3e
       0.25185883 0.43677175 -0.2339145 0.29798582
0001c0 4a fc ee 3d 60 e1 79 bd 84 65 d8 bd d5 d3 d8 be
       0.11669214 -0.06100595 -0.105662376 -0.42349115
0001d0 52 06 7b be 04 45 55 be 9e ae 07 bf 0b 41 a7 3e
       -0.2451413 -0.20827109 -0.5300082 0.3266681
0001e0 59 e4 94 3d 25 83 e6 3e 80 c1 85 3f 6c 69 35 bd
       0.07270116 0.4502193 1.0449677 -0.04428999
0001f0 6d f3 e4 3e 23 a8 1a be 49 bf 90 bf 35 b0 cf 3e
       0.4471697 -0.15103202 -1.1308376 0.40564123
000200 8d c2 3d bf 3e a6 24 be 4a a7 03 3d 52 09 96 be
       -0.74124986 -0.16079041 0.03214196 -0.29303986
000210 cb 72 1a bd d0 ef 7e 3e 65 16 00 3f 48 84 64 3d
       -0.03770713 0.24896169 0.5003417 0.055790216
000220 87 33 18 bf 1b 6a 4f 3d 94 8f 9f 3e 1e bd c2 3c
       -0.59453624 0.0506383 0.3116423 0.023771819
000230 c1 51 01 bf bf 55 b3 be 71 79 8d bc 4a f1 19 3f
       -0.5051537 -0.35026357 -0.017269822 0.601338
000240 2a d2 82 3d d0 8a 41 be 57 23 b9 3e 84 90 b8 3e
       0.06387742 -0.18900609 0.36159775 0.36047757
000250 96 c1 c8 be d7 49 02 bf 72 0d a8 3f d1 ae 18 be
       -0.39210194 -0.5089392 1.3129103 -0.14910437
000260 9a 5c 81 bf 85 34 9c 3f c2 cc 7b bd 81 7d 82 3e
       -1.0106385 1.2203528 -0.06147457 0.25486377
000270 ea 01 70 3e a7 9e 14 be 60 98 8d be af 1f 88 bd
       0.2343823 -0.14513646 -0.27655315 -0.06646668
000280 25 3c e3 be b5 a8 af 3c 4d c8 f5 bd 17 35 27 bf
       -0.44381824 0.02144275 -0.12001095 -0.65315384
000290 71 af 9b 3e 5a a0 b7 3e b2 57 2a bd 08 39 e7 3e
       0.3040729 0.35864526 -0.04158754 0.451607
0002a0 31 6c a4 3d 79 e0 28 be 3f be 87 be de 9d 8a be
       0.080284484 -0.1649188 -0.26512334 -0.27073568
0002b0 b6 da a8 bd d5 81 fa be 85 88 f5 3e f8 ec 09 bf
       -0.08244841 -0.4892718 0.4795572 -0.5387721
0002c0 db 15 dc bd 4e fc 04 3e 64 03 58 bf c6 66 94 be
       -0.10746356 0.12986872 -0.84380174 -0.2898466
0002d0 8a 54 4f 3f e7 ad 3d be 03 be 66 3e 4f a0 9e be
       0.8098837 -0.1852337 0.22533421 -0.3098168
0002e0 a3 f0 fb 3d 9b 2e 90 3f 28 3a a2 bd 62 f2 92 3c
       0.12301757 1.1264223 -0.07921249 0.017937843
0002f0 ad 7d 17 bf 2d 11 34 3e 30 f6 4d be 68 12 3a bf
       -0.5917614 0.17584677 -0.20113444 -0.72684336
000300 e0 19 04 be 10 66 49 be b0 fc 5d be d9 b0 f6 3e
       -0.12900496 -0.1966784 -0.21678424 0.481818
000310 61 98 16 bf cd 1b 86 3e 5a 3a 8b 3e 52 73 a0 bf
       -0.5882626 0.26193085 0.27192956 -1.2535193
000320 da b8 01 3f 2e ff c7 3f f1 0d 85 3e 38 77 34 be
       0.50672686 1.562475 0.259872 -0.17623603
000330 09 5f 0d be 7d be de be 14 02 07 be 9b 1b 12 bf
       -0.13805784 -0.43504706 -0.13184386 -0.5707337
000340 0a 8a 36 bf 34 f9 6d bf f1 2d 21 bf ba 2c 71 3d
       -0.7130438 -0.9295838 -0.62960726 0.058880545
000350 40 5f e5 be 31 cb 78 be f8 67 a0 3e a9 ec 0f 3f
       -0.44799232 -0.24296261 0.31329322 0.5622049
000360 49 38 d3 bd 76 33 ee 3e 6c 73 3b 3e f3 d1 b9 be
       -0.1031347 0.46523637 0.18305749 -0.3629299
000370 b1 16 77 3e 02 d5 1f bf 75 27 fa bd 8b 5f 97 be
       0.2412975 -0.624344 -0.12214557 -0.2956508
000380 0f 42 0d bf fb 25 60 bc cc b1 40 be 3e 7e da 3d
       -0.5517892 -0.01368093 -0.18817824 0.1066861
000390 da 2a 50 be c3 e9 41 bf f5 54 48 3d 9d f6 01 3f
       -0.20328847 -0.7574732 0.048909146 0.50766927
0003a0 ac d5 8d be 3d e7 15 3f cd d8 ae be e9 ab 83 bf
       -0.2770208 0.58555967 -0.3414978 -1.0286838
0003b0 99 eb 9d 3e 87 23 ce be cb d8 3e 3f ca c6 19 bd
       0.3084381 -0.4026148 0.7454955 -0.037543096
0003c0 e9 af ca be e4 f7 ac 3e d8 57 eb be 00 72 e9 3e
       -0.39587334 0.33782876 -0.45965457 0.45594788
0003d0 3a a6 94 bf d7 10 af 3f b6 8c 69 be 26 f1 69 3c
       -1.1613228 1.3677014 -0.22807583 0.014278686
0003e0 f5 5b 30 3f 6f 3d 86 bc 6e c6 4b bf f7 23 47 3e
       0.68890315 -0.016386716 -0.79599655 0.19447313
0003f0 67 63 5f bf 53 d3 88 3f a0 92 05 bd 66 dd c1 be
       -0.8726105 1.0689491 -0.032610536 -0.37864226

lstm.weight_hh_l1 f4 [256, 64]
000000 ee 0d aa 3d 4e 10 0e 3f eb ba 37 be 8b 3f dd bb
       0.08303438 0.5549363 -0.17942397 -0.0067519597
000010 49 e4 ae bf 55 dc 9e 3d 8a 62 35 bf b3 e0 02 3e
       -1.3663417 0.07756869 -0.70853484 0.12781028
000020 75 45 50 be 98 e7 15 be 12 4c ce 3d d7 1f 3a 3e
       -0.20338996 -0.14639127 0.10073103 0.18176208
000030 24 ef ce be 6c cc 1a 3e bb 1b ba 3e 52 31 12 bf
       -0.40416825 0.15117043 0.36349282 -0.57106507
000040 6b 54 9d 3e c5 68 05 3d c3 85 ce be 4d 98 9a 3c
       0.30728468 0.03257062 -0.40336427 0.01887145
000050 9a ec c5 3e e6 2c 86 be 7e 3c f8 be 45 66 58 be
       0.38657075 -0.2620613 -0.48483652 -0.21132763
000060 2d 30 56 bd 93 c0 84 bb 6d 8b 08 bf a4 2f 32 3f
       -0.052292038 -0.004051277 -0.53337747 0.69603944
000070 6c 7d ab bd bc 85 7a be cc 5f b3 3e f2 5f 66 be
       -0.08373532 -0.24465078 0.35034025 -0.22497538
000080 81 db ab bf 14 08 97 3d ef 1b 56 bd 68 9e c5 bd
       -1.3426362 0.07374588 -0.052272733 -0.09649354
000090 3f 91 2a 3e dd 7a 24 be 02 10 33 3f 95 c1 0a 3f
       0.1665697 -0.16062494 0.699463 0.5420163
0000a0 33 68 a3 be 46 3b 8b 3d 75 57 86 be 83 b6 e4 be
       -0.31915435 0.06798415 -0.262386 -0.44670495
0000b0 bf 0e e5 be 7a bc 01 bd ab 8a 98 3e d2 a4 e0 bd
       -0.44737813 -0.031673886 0.29793295 -0.10968937
0000c0 a9 98 c3 3d b8 61 82 3e 22 1e 32 be d0 1e 63 3e
       0.09550602 0.25465178 -0.17394307 0.22179723
0000d0 04 d7 10 be 66 6b 86 3e 72 63 05 3f e9 1e 33 be
       -0.14144522 0.26253814 0.52104867 -0.1749226
0000e0 28 e0 c5 be 50 e3 28 be dc 39 65 be b2 98 01 3f
       -0.3864758 -0.16492963 -0.22385353 0.5062362
0000f0 87 61 33 be 50 c9 ba 3e d7 6e 45 be 8a a9 61 3e
       -0.17517672 0.36481714 -0.19280563 0.2203733
000100 c5 9b 94 3d d0 26 bd bc cb a5 17 bf 18 5a c1 be
       0.07256273 -0.023089796 -0.59237355 -0.3776405
000110 28 44 9e be a1 4c 3c 3f 8c d7 14 3d c2 c6 84 be
       -0.30911374 0.73554426 0.036338374 -0.2593289
000120 b4 91 57 3f 26 62 bc 3e 65 2c 55 bf 56 f9 26 bf
       0.842067 0.3679363 -0.83270866 -0.65224206
000130 e1 5f 29 be 94 39 ae 3e e8 17 a7 be db 8c 89 bf
       -0.16540481 0.34028304 -0.32635427 -1.0746111
000140 62 cb 26 3d 61 78 c0 3e 76 01 07 3f b7 df b1 3f
       0.040721305 0.37591842 0.52736604 1.3896397
000150 a6 04 72 bf db 84 9c be 22 1e e7 be fc ef 96 be
       -0.9453834 -0.3057011 -0.45140177 -0.2947997
000160 9f 1c 20 bf f7 a7 f8 3e c5 40 96 be 42 04 bc 3e
       -0.6254367 0.48565647 -0.2934629 0.36721998
000170 35 14 8f 3e 73 62 a8 bf c5 c5 a0 bf c1 07 bc 3e
       0.27945104 -1.3155044 -1.2560354 0.36724666
000180 6b 22 59 bf ac bc c5 3e 02 df 03 3f ee b6 8d be
       -0.8481814 0.38620508 0.5151216 -0.27678627
000190 bc 47 8a be 42 c5 28 3d 9a 23 86 be 24 df 9b 3e
       -0.27007854 0.041203745 -0.26199037 0.3044368
0001a0 8d 6a 9f be ac 9e 9f bf 02 94 cb be c2 d5 15 be
       -0.3113598 -1.2470298 -0.39761358 -0.14632323
0001b0 82 a0 f0 3e 7d 4d 2a be 9e 32 20 3d a6 af 39 3f
       0.46997458 -0.16631122 0.039110772 0.72533643
0001c0 8e f5 08 3f 4d 5c 34 be d7 9b 0c 3f 4a 4c 1e 3d
       0.53499687 -0.17613335 0.5492529 0.038646974
0001d0 c7 f6 82 bd d1 e2 b4 bd 31 4d 32 be c1 fc 81 be
       -0.06394725 -0.08832324 -0.17412259 -0.25388148
0001e0 24 40 be 3d 9c f4 52 be 6a 99 5d be 3c d6 02 3f
       0.092895776 -0.20601124 -0.21640554 0.51108146
0001f0 4a c5 75 bc e2 b0 12 3d 22 e5 8b be 59 bf d2 bd
       -0.015000651 0.03581322 -0.27323252 -0.10290403
000200 ec 10 10 3d 84 df 47 bf 19 3e 3c 3e 3e 1f 09 3f
       0.035172388 -0.7807543 0.18383063 0.53563297
000210 be 60 98 3c bd ac 71 3f f7 3a 2f bf df 4d f4 3c
       0.018600818 0.944042 -0.6844935 0.029822288
000220 b2 8d 4d 3f f6 91 88 3f a9 6b 1a be 89 9e 02 c0
       0.80294335 1.0669544 -0.15080132 -2.0409262
000230 6d 37 e7 be 1b a7 a9 bd 3f a8 5d 3e 06 5b 04 be
       -0.45159474 -0.08283826 0.21646212 -0.12925348
000240 30 55 c1 bd 6f 91 78 be e5 35 36 be fa c8 a9 3f
       -0.09440076 -0.24274229 -0.17793997 1.3264458
000250 c5 2b 4a 3f 6e 28 db 3e 75 d5 28 3f c8 82 80 bd
       0.78973037 0.42804283 0.6595071 -0.062749445
000260 48 8c 28 bf d5 2e 8a bf 69 24 94 be d2 50 83 bf
       -0.6583905 -1.0795542 -0.2893403 -1.0259039
000270 97 83 79 3e 95 32 c6 be 83 d1 21 be e5 5a dd be
       0.24366604 -0.38710466 -0.15802579 -0.4323341
000280 71 39 68 be 56 45 ea bd 1d 35 00 bf 0c 1c ce 3e
       -0.22678162 -0.11439006 -0.50081044 0.40255773
000290 9f 8f ee 3e 4e ac 1c be 80 d9 f7 3e eb 1c 8f be
       0.4659395 -0.15300104 0.48408127 -0.2795175
0002a0 f9 42 49 3d d6 7b 80 3c 92 a3 e8 3e fd 2c 1d bf
       0.049136136 0.01568405 0.45437294 -0.6139677
0002b0 ad a8 6b be 6d a0 45 3f c0 f9 11 be 37 ef 4c bf
       -0.23013563 0.77197915 -0.14255428 -0.8005251
0002c0 4f 62 24 3f 23 37 22 3f d3 9c 0c 3f 22 80 d8 bb
       0.64212507 0.6336538 0.54926795 -0.0066070715
0002d0 76 9d fe bd f5 5c dd be 71 2b 96 3e 50 ae b4 be
       -0.12432377 -0.43234983 0.29330018 -0.3528924
0002e0 22 08 aa be 09 63 c3 bd de 92 a1 3d a7 0a f7 3e
       -0.3320933 -0.09540374 0.07889341 0.48250315
0002f0 2c 26 fc 3c 17 18 93 bf 46 10 87 3e f5 d8 08 3d
       0.03077992 -1.1491727 0.26379603 0.03341003
000300 6d 68 60 3e 2d b3 3e be a9 bf 2c bf b4 f9 d9 be
       0.21914835 -0.18623038 -0.6747995 -0.4257332
000310 f8 0b 62 3f 22 95 21 3e 26 f6 fb 3b e7 00 ff 3d
       0.8829951 0.15779546 0.0076892553 0.12451344
000320 97 77 cb 3e 61 9f 3c 3e c4 0e 1a 3f 86 f9 03 bd
       0.39739677 0.18420173 0.6017878 -0.032220386
000330 a1 4b a8 3e b3 ec 0f 3d 1f a7 83 3e d3 56 1b 3f
       0.328702 0.035137843 0.2571344 0.6067936
000340 ec 15 54 3d 97 53 73 3e 66 ce 1a 3b 93 67 75 be
       0.05177872 0.23762356 0.0023621558 -0.23965292
000350 d0 b8 00 bf f5 4f e2 3e bc 58 26 be 50 f1 6c 3d
       -0.50282 0.44201627 -0.16244787 0.05784732
000360 e4 91 4f be 2f 45 7a bf da 7b 03 bf 21 80 00 bf
       -0.20270497 -0.97761816 -0.5136086 -0.5019551
000370 3a 30 2a 3d 07 db 69 3e 0b cb 1b be 6f 8a 87 3e
       0.0415499 0.22837459 -0.15214173 0.26472804
000380 57 a2 fd 3b a7 cd 2f 3f 83 59 fa 3d 99 4e 3c bf
       0.0077402997 0.68673176 0.12224104 -0.7355743
000390 81 ed 10 bf e7 d0 40 bd 28 11 0e 3f 45 66 da bd
       -0.566124 -0.047074225 0.5549493 -0.106640376
0003a0 55 ec f1 3e 79 68 ff bd 36 6e e3 bc 5e fc 87 bc
       0.4725062 -0.124710985 -0.027762514 -0.01659983
0003b0 cb 2c 40 be 0c c3 8e 3f bb 7f 6c be 39 dd 7f bf
       -0.18767087 1.1153274 -0.230956 -0.99946934
0003c0 bb 06 4d 3f b0 fb 4a be 91 c5 a5 3e 54 52 21 3f
       0.80088395 -0.19822574 0.32377294 0.6301625
0003d0 f4 21 83 bd 0d 1f af 3d c8 93 ee 3e d0 90 05 3e
       -0.064029604 0.08550844 0.46597123 0.13043523
0003e0 23 1d 0e 3d aa 86 f6 be ad a0 a4 3e 98 9f 87 bd
       0.034695756 -0.48149616 0.32153836 -0.06622237
0003f0 49 c5 25 be c3 dd 3c 3e 90 c5 09 be 8d 50 3f 3f
       -0.1618854 0.1844397 -0.1345427 0.74732286
